…
_inner2048_drop0.1_pe5000_emb512_dlayer6_share1_ls0.1_epoch16_shuffle1_bs8_bf7500_mli800_mlo150_k0.2_warm4000', shuffle=1, tgt_emb_prj_weight_sharing=1, train_json='dump/train/deltafalse/data.json', valid_json='dump/dev/deltafalse/data.json', visdom=0, visdom_epoch=0, visdom_id='Transformer Training', visdom_lr=0, warmup_steps=4000)
NOTE: Generate minibatch based on batch_frames.
i.e. each batch contains approximately #batch_frames frames
NOTE: Generate minibatch based on batch_frames.
i.e. each batch contains approximately #batch_frames frames
Transformer(
  (encoder): Encoder(
    (linear_in): Linear(in_features=320, out_features=512, bias=True)
    (layer_norm_in): LayerNorm((512,), eps=1e-05, elementwise_affine=True)
    (positional_encoding): PositionalEncoding()
    (dropout): Dropout(p=0.1, inplace=False)
    (layer_stack): ModuleList(
      (0): EncoderLayer(
        (slf_attn): MultiHeadAttention(
          (w_qs): Linear(in_features=512, out_features=512, bias=True)
          (w_ks): Linear(in_features=512, out_features=512, bias=True)
          (w_vs): Linear(in_features=512, out_features=512, bias=True)
          (attention): ScaledDotProductAttention(
            (dropout): Dropout(p=0.1, inplace=False)
            (softmax): Softmax(dim=2)
          )
          (layer_norm): LayerNorm((512,), eps=1e-05, elementwise_affine=True)
          (fc): Linear(in_features=512, out_features=512, bias=True)
          (dropout): Dropout(p=0.1, inplace=False)
        )
        (pos_ffn): PositionwiseFeedForward(
          (w_1): Linear(in_features=512, out_features=2048, bias=True)
          (w_2): Linear(in_features=2048, out_features=512, bias=True)
          (dropout): Dropout(p=0.1, inplace=False)
          (layer_norm): LayerNorm((512,), eps=1e-05, elementwise_affine=True)
        )
      )
      (1): EncoderLayer(
        (slf_attn): MultiHeadAttention(
          (w_qs): Linear(in_features=512, out_features=512, bias=True)
          (w_ks): Linear(in_features=512, out_features=512, bias=True)
          (w_vs): Linear(in_features=512, out_features=512, bias=True)
          (attention): ScaledDotProductAttention(
            (dropout): Dropout(p=0.1, inplace=False)
            (softmax): Softmax(dim=2)
          )
          (layer_norm): LayerNorm((512,), eps=1e-05, elementwise_affine=True)
          (fc): Linear(in_features=512, out_features=512, bias=True)
          (dropout): Dropout(p=0.1, inplace=False)
        )
        (pos_ffn): PositionwiseFeedForward(
          (w_1): Linear(in_features=512, out_features=2048, bias=True)
          (w_2): Linear(in_features=2048, out_features=512, bias=True)
          (dropout): Dropout(p=0.1, inplace=False)
          (layer_norm): LayerNorm((512,), eps=1e-05, elementwise_affine=True)
        )
      )
      (2): EncoderLayer(
        (slf_attn): MultiHeadAttention(
          (w_qs): Linear(in_features=512, out_features=512, bias=True)
          (w_ks): Linear(in_features=512, out_features=512, bias=True)
          (w_vs): Linear(in_features=512, out_features=512, bias=True)
          (attention): ScaledDotProductAttention(
            (dropout): Dropout(p=0.1, inplace=False)
            (softmax): Softmax(dim=2)
          )
          (layer_norm): LayerNorm((512,), eps=1e-05, elementwise_affine=True)
          (fc): Linear(in_features=512, out_features=512, bias=True)
          (dropout): Dropout(p=0.1, inplace=False)
        )
        (pos_ffn): PositionwiseFeedForward(
          (w_1): Linear(in_features=512, out_features=2048, bias=True)
          (w_2): Linear(in_features=2048, out_features=512, bias=True)
          (dropout): Dropout(p=0.1, inplace=False)
          (layer_norm): LayerNorm((512,), eps=1e-05, elementwise_affine=True)
        )
      )
      (3): EncoderLayer(
        (slf_attn): MultiHeadAttention(
          (w_qs): Linear(in_features=512, out_features=512, bias=True)
          (w_ks): Linear(in_features=512, out_features=512, bias=True)
          (w_vs): Linear(in_features=512, out_features=512, bias=True)
          (attention): ScaledDotProductAttention(
            (dropout): Dropout(p=0.1, inplace=False)
            (softmax): Softmax(dim=2)
          )
          (layer_norm): LayerNorm((512,), eps=1e-05, elementwise_affine=True)
          (fc): Linear(in_features=512, out_features=512, bias=True)
          (dropout): Dropout(p=0.1, inplace=False)
        )
        (pos_ffn): PositionwiseFeedForward(
          (w_1): Linear(in_features=512, out_features=2048, bias=True)
          (w_2): Linear(in_features=2048, out_features=512, bias=True)
          (dropout): Dropout(p=0.1, inplace=False)
          (layer_norm): LayerNorm((512,), eps=1e-05, elementwise_affine=True)
        )
      )
      (4): EncoderLayer(
        (slf_attn): MultiHeadAttention(
          (w_qs): Linear(in_features=512, out_features=512, bias=True)
          (w_ks): Linear(in_features=512, out_features=512, bias=True)
          (w_vs): Linear(in_features=512, out_features=512, bias=True)
          (attention): ScaledDotProductAttention(
            (dropout): Dropout(p=0.1, inplace=False)
            (softmax): Softmax(dim=2)
          )
          (layer_norm): LayerNorm((512,), eps=1e-05, elementwise_affine=True)
          (fc): Linear(in_features=512, out_features=512, bias=True)
          (dropout): Dropout(p=0.1, inplace=False)
        )
        (pos_ffn): PositionwiseFeedForward(
          (w_1): Linear(in_features=512, out_features=2048, bias=True)
          (w_2): Linear(in_features=2048, out_features=512, bias=True)
          (dropout): Dropout(p=0.1, inplace=False)
          (layer_norm): LayerNorm((512,), eps=1e-05, elementwise_affine=True)
        )
      )
      (5): EncoderLayer(
        (slf_attn): MultiHeadAttention(
          (w_qs): Linear(in_features=512, out_features=512, bias=True)
          (w_ks): Linear(in_features=512, out_features=512, bias=True)
          (w_vs): Linear(in_features=512, out_features=512, bias=True)
          (attention): ScaledDotProductAttention(
            (dropout): Dropout(p=0.1, inplace=False)
            (softmax): Softmax(dim=2)
          )
          (layer_norm): LayerNorm((512,), eps=1e-05, elementwise_affine=True)
          (fc): Linear(in_features=512, out_features=512, bias=True)
          (dropout): Dropout(p=0.1, inplace=False)
        )
        (pos_ffn): PositionwiseFeedForward(
          (w_1): Linear(in_features=512, out_features=2048, bias=True)
          (w_2): Linear(in_features=2048, out_features=512, bias=True)
          (dropout): Dropout(p=0.1, inplace=False)
          (layer_norm): LayerNorm((512,), eps=1e-05, elementwise_affine=True)
        )
      )
    )
  )
  (decoder): Decoder(
    (tgt_word_emb): Embedding(4233, 512)
    (positional_encoding): PositionalEncoding()
    (dropout): Dropout(p=0.1, inplace=False)
    (layer_stack): ModuleList(
      (0): DecoderLayer(
        (slf_attn): MultiHeadAttention(
          (w_qs): Linear(in_features=512, out_features=512, bias=True)
          (w_ks): Linear(in_features=512, out_features=512, bias=True)
          (w_vs): Linear(in_features=512, out_features=512, bias=True)
          (attention): ScaledDotProductAttention(
            (dropout): Dropout(p=0.1, inplace=False)
            (softmax): Softmax(dim=2)
          )
          (layer_norm): LayerNorm((512,), eps=1e-05, elementwise_affine=True)
          (fc): Linear(in_features=512, out_features=512, bias=True)
          (dropout): Dropout(p=0.1, inplace=False)
        )
        (enc_attn): MultiHeadAttention(
          (w_qs): Linear(in_features=512, out_features=512, bias=True)
          (w_ks): Linear(in_features=512, out_features=512, bias=True)
          (w_vs): Linear(in_features=512, out_features=512, bias=True)
          (attention): ScaledDotProductAttention(
            (dropout): Dropout(p=0.1, inplace=False)
            (softmax): Softmax(dim=2)
          )
          (layer_norm): LayerNorm((512,), eps=1e-05, elementwise_affine=True)
          (fc): Linear(in_features=512, out_features=512, bias=True)
          (dropout): Dropout(p=0.1, inplace=False)
        )
        (pos_ffn): PositionwiseFeedForward(
          (w_1): Linear(in_features=512, out_features=2048, bias=True)
          (w_2): Linear(in_features=2048, out_features=512, bias=True)
          (dropout): Dropout(p=0.1, inplace=False)
          (layer_norm): LayerNorm((512,), eps=1e-05, elementwise_affine=True)
        )
      )
      (1): DecoderLayer(
        (slf_attn): MultiHeadAttention(
          (w_qs): Linear(in_features=512, out_features=512, bias=True)
          (w_ks): Linear(in_features=512, out_features=512, bias=True)
          (w_vs): Linear(in_features=512, out_features=512, bias=True)
          (attention): ScaledDotProductAttention(
            (dropout): Dropout(p=0.1, inplace=False)
            (softmax): Softmax(dim=2)
          )
          (layer_norm): LayerNorm((512,), eps=1e-05, elementwise_affine=True)
          (fc): Linear(in_features=512, out_features=512, bias=True)
          (dropout): Dropout(p=0.1, inplace=False)
        )
        (enc_attn): MultiHeadAttention(
          (w_qs): Linear(in_features=512, out_features=512, bias=True)
          (w_ks): Linear(in_features=512, out_features=512, bias=True)
          (w_vs): Linear(in_features=512, out_features=512, bias=True)
          (attention): ScaledDotProductAttention(
            (dropout): Dropout(p=0.1, inplace=False)
            (softmax): Softmax(dim=2)
          )
          (layer_norm): LayerNorm((512,), eps=1e-05, elementwise_affine=True)
          (fc): Linear(in_features=512, out_features=512, bias=True)
          (dropout): Dropout(p=0.1, inplace=False)
        )
        (pos_ffn): PositionwiseFeedForward(
          (w_1): Linear(in_features=512, out_features=2048, bias=True)
          (w_2): Linear(in_features=2048, out_features=512, bias=True)
          (dropout): Dropout(p=0.1, inplace=False)
          (layer_norm): LayerNorm((512,), eps=1e-05, elementwise_affine=True)
        )
      )
      (2): DecoderLayer(
        (slf_attn): MultiHeadAttention(
          (w_qs): Linear(in_features=512, out_features=512, bias=True)
          (w_ks): Linear(in_features=512, out_features=512, bias=True)
          (w_vs): Linear(in_features=512, out_features=512, bias=True)
          (attention): ScaledDotProductAttention(
            (dropout): Dropout(p=0.1, inplace=False)
            (softmax): Softmax(dim=2)
          )
          (layer_norm): LayerNorm((512,), eps=1e-05, elementwise_affine=True)
          (fc): Linear(in_features=512, out_features=512, bias=True)
          (dropout): Dropout(p=0.1, inplace=False)
        )
        (enc_attn): MultiHeadAttention(
          (w_qs): Linear(in_features=512, out_features=512, bias=True)
          (w_ks): Linear(in_features=512, out_features=512, bias=True)
          (w_vs): Linear(in_features=512, out_features=512, bias=True)
          (attention): ScaledDotProductAttention(
            (dropout): Dropout(p=0.1, inplace=False)
            (softmax): Softmax(dim=2)
          )
          (layer_norm): LayerNorm((512,), eps=1e-05, elementwise_affine=True)
          (fc): Linear(in_features=512, out_features=512, bias=True)
          (dropout): Dropout(p=0.1, inplace=False)
        )
        (pos_ffn): PositionwiseFeedForward(
          (w_1): Linear(in_features=512, out_features=2048, bias=True)
          (w_2): Linear(in_features=2048, out_features=512, bias=True)
          (dropout): Dropout(p=0.1, inplace=False)
          (layer_norm): LayerNorm((512,), eps=1e-05, elementwise_affine=True)
        )
      )
      (3): DecoderLayer(
        (slf_attn): MultiHeadAttention(
          (w_qs): Linear(in_features=512, out_features=512, bias=True)
          (w_ks): Linear(in_features=512, out_features=512, bias=True)
          (w_vs): Linear(in_features=512, out_features=512, bias=True)
          (attention): ScaledDotProductAttention(
            (dropout): Dropout(p=0.1, inplace=False)
            (softmax): Softmax(dim=2)
          )
          (layer_norm): LayerNorm((512,), eps=1e-05, elementwise_affine=True)
          (fc): Linear(in_features=512, out_features=512, bias=True)
          (dropout): Dropout(p=0.1, inplace=False)
        )
        (enc_attn): MultiHeadAttention(
          (w_qs): Linear(in_features=512, out_features=512, bias=True)
          (w_ks): Linear(in_features=512, out_features=512, bias=True)
          (w_vs): Linear(in_features=512, out_features=512, bias=True)
          (attention): ScaledDotProductAttention(
            (dropout): Dropout(p=0.1, inplace=False)
            (softmax): Softmax(dim=2)
          )
          (layer_norm): LayerNorm((512,), eps=1e-05, elementwise_affine=True)
          (fc): Linear(in_features=512, out_features=512, bias=True)
          (dropout): Dropout(p=0.1, inplace=False)
        )
        (pos_ffn): PositionwiseFeedForward(
          (w_1): Linear(in_features=512, out_features=2048, bias=True)
          (w_2): Linear(in_features=2048, out_features=512, bias=True)
          (dropout): Dropout(p=0.1, inplace=False)
          (layer_norm): LayerNorm((512,), eps=1e-05, elementwise_affine=True)
        )
      )
      (4): DecoderLayer(
        (slf_attn): MultiHeadAttention(
          (w_qs): Linear(in_features=512, out_features=512, bias=True)
          (w_ks): Linear(in_features=512, out_features=512, bias=True)
          (w_vs): Linear(in_features=512, out_features=512, bias=True)
          (attention): ScaledDotProductAttention(
            (dropout): Dropout(p=0.1, inplace=False)
            (softmax): Softmax(dim=2)
          )
          (layer_norm): LayerNorm((512,), eps=1e-05, elementwise_affine=True)
          (fc): Linear(in_features=512, out_features=512, bias=True)
          (dropout): Dropout(p=0.1, inplace=False)
        )
        (enc_attn): MultiHeadAttention(
          (w_qs): Linear(in_features=512, out_features=512, bias=True)
          (w_ks): Linear(in_features=512, out_features=512, bias=True)
          (w_vs): Linear(in_features=512, out_features=512, bias=True)
          (attention): ScaledDotProductAttention(
            (dropout): Dropout(p=0.1, inplace=False)
            (softmax): Softmax(dim=2)
          )
          (layer_norm): LayerNorm((512,), eps=1e-05, elementwise_affine=True)
          (fc): Linear(in_features=512, out_features=512, bias=True)
          (dropout): Dropout(p=0.1, inplace=False)
        )
        (pos_ffn): PositionwiseFeedForward(
          (w_1): Linear(in_features=512, out_features=2048, bias=True)
          (w_2): Linear(in_features=2048, out_features=512, bias=True)
          (dropout): Dropout(p=0.1, inplace=False)
          (layer_norm): LayerNorm((512,), eps=1e-05, elementwise_affine=True)
        )
      )
      (5): DecoderLayer(
        (slf_attn): MultiHeadAttention(
          (w_qs): Linear(in_features=512, out_features=512, bias=True)
          (w_ks): Linear(in_features=512, out_features=512, bias=True)
          (w_vs): Linear(in_features=512, out_features=512, bias=True)
          (attention): ScaledDotProductAttention(
            (dropout): Dropout(p=0.1, inplace=False)
            (softmax): Softmax(dim=2)
          )
          (layer_norm): LayerNorm((512,), eps=1e-05, elementwise_affine=True)
          (fc): Linear(in_features=512, out_features=512, bias=True)
          (dropout): Dropout(p=0.1, inplace=False)
        )
        (enc_attn): MultiHeadAttention(
          (w_qs): Linear(in_features=512, out_features=512, bias=True)
          (w_ks): Linear(in_features=512, out_features=512, bias=True)
          (w_vs): Linear(in_features=512, out_features=512, bias=True)
          (attention): ScaledDotProductAttention(
            (dropout): Dropout(p=0.1, inplace=False)
            (softmax): Softmax(dim=2)
          )
          (layer_norm): LayerNorm((512,), eps=1e-05, elementwise_affine=True)
          (fc): Linear(in_features=512, out_features=512, bias=True)
          (dropout): Dropout(p=0.1, inplace=False)
        )
        (pos_ffn): PositionwiseFeedForward(
          (w_1): Linear(in_features=512, out_features=2048, bias=True)
          (w_2): Linear(in_features=2048, out_features=512, bias=True)
          (dropout): Dropout(p=0.1, inplace=False)
          (layer_norm): LayerNorm((512,), eps=1e-05, elementwise_affine=True)
        )
      )
    )
    (tgt_word_prj): Linear(in_features=512, out_features=4233, bias=False)
  )
)
Training...
Epoch 1 | Iter 1 | Average Loss 8.449 | Current Loss 8.448512 | 3383.2 ms/batch
Epoch 1 | Iter 11 | Average Loss 8.441 | Current Loss 8.398501 | 2431.8 ms/batch
Epoch 1 | Iter 21 | Average Loss 8.441 | Current Loss 8.430629 | 2338.1 ms/batch
Epoch 1 | Iter 31 | Average Loss 8.425 | Current Loss 8.379369 | 2287.1 ms/batch
Epoch 1 | Iter 41 | Average Loss 8.406 | Current Loss 8.336948 | 2263.7 ms/batch
…
